…
[2025-08-29 17:01:10 base_trainer.py line 23]=>INFO: Loading trainer: CodeStyle
[2025-08-29 17:01:10 base_dataset.py line 17]=>INFO: Loading dataset: HDTF_TFHP
[2025-08-29 17:01:13 base_datamanager.py line 91]=>INFO: Dataset summary:
-------  ---------
Dataset  HDTF_TFHP
# train  875
# val    118
# test   120
-------  ---------
[2025-08-29 17:01:13 codestyle.py line 54]=>INFO: Building model  ...
[2025-08-29 17:01:14 codestyle.py line 59]=>INFO: Params: 131,653,341
[2025-08-29 17:01:14 codestyle.py line 60]=>INFO: Model Structure:
StyleVQAE(
  (encoder): TransformerEncoder(
    (vertice_mapping): Sequential(
      (0): Linear(in_features=15069, out_features=1024, bias=True)
      (1): LeakyReLU(negative_slope=0.2, inplace=True)
    )
    (squasher): Sequential(
      (0): Sequential(
        (0): Conv1d(1024, 1024, kernel_size=(5,), stride=(1,), padding=(2,), padding_mode=replicate)
        (1): LeakyReLU(negative_slope=0.2, inplace=True)
        (2): InstanceNorm1d(1024, eps=1e-05, momentum=0.1, affine=False, track_running_stats=False)
      )
    )
    (encoder_transformer): Transformer(
      (net): Sequential(
        (0): Residual(
          (fn): Norm(
            (norm): LayerNorm((1024,), eps=1e-05, elementwise_affine=True)
            (fn): Attention(
              (to_qkv): Linear(in_features=1024, out_features=3072, bias=False)
              (to_out): Linear(in_features=1024, out_features=1024, bias=True)
              (rearrange_qkv): Rearrange('b n (qkv h d) -> qkv b h n d', qkv=3, h=8)
              (rearrange_out): Rearrange('b h n d -> b n (h d)')
            )
          )
        )
        (1): Residual(
          (fn): Norm(
            (norm): LayerNorm((1024,), eps=1e-05, elementwise_affine=True)
            (fn): MLP(
              (l1): Linear(in_features=1024, out_features=1536, bias=True)
              (l2): Linear(in_features=1536, out_features=1024, bias=True)
            )
          )
        )
        (2): Residual(
          (fn): Norm(
            (norm): LayerNorm((1024,), eps=1e-05, elementwise_affine=True)
            (fn): Attention(
              (to_qkv): Linear(in_features=1024, out_features=3072, bias=False)
              (to_out): Linear(in_features=1024, out_features=1024, bias=True)
              (rearrange_qkv): Rearrange('b n (qkv h d) -> qkv b h n d', qkv=3, h=8)
              (rearrange_out): Rearrange('b h n d -> b n (h d)')
            )
          )
        )
        (3): Residual(
          (fn): Norm(
            (norm): LayerNorm((1024,), eps=1e-05, elementwise_affine=True)
            (fn): MLP(
              (l1): Linear(in_features=1024, out_features=1536, bias=True)
              (l2): Linear(in_features=1536, out_features=1024, bias=True)
            )
          )
        )
        (4): Residual(
          (fn): Norm(
            (norm): LayerNorm((1024,), eps=1e-05, elementwise_affine=True)
            (fn): Attention(
              (to_qkv): Linear(in_features=1024, out_features=3072, bias=False)
              (to_out): Linear(in_features=1024, out_features=1024, bias=True)
              (rearrange_qkv): Rearrange('b n (qkv h d) -> qkv b h n d', qkv=3, h=8)
              (rearrange_out): Rearrange('b h n d -> b n (h d)')
            )
          )
        )
        (5): Residual(
          (fn): Norm(
            (norm): LayerNorm((1024,), eps=1e-05, elementwise_affine=True)
            (fn): MLP(
              (l1): Linear(in_features=1024, out_features=1536, bias=True)
              (l2): Linear(in_features=1536, out_features=1024, bias=True)
            )
          )
        )
        (6): Residual(
          (fn): Norm(
            (norm): LayerNorm((1024,), eps=1e-05, elementwise_affine=True)
            (fn): Attention(
              (to_qkv): Linear(in_features=1024, out_features=3072, bias=False)
              (to_out): Linear(in_features=1024, out_features=1024, bias=True)
              (rearrange_qkv): Rearrange('b n (qkv h d) -> qkv b h n d', qkv=3, h=8)
              (rearrange_out): Rearrange('b h n d -> b n (h d)')
            )
          )
        )
        (7): Residual(
          (fn): Norm(
            (norm): LayerNorm((1024,), eps=1e-05, elementwise_affine=True)
            (fn): MLP(
              (l1): Linear(in_features=1024, out_features=1536, bias=True)
              (l2): Linear(in_features=1536, out_features=1024, bias=True)
            )
          )
        )
        (8): Residual(
          (fn): Norm(
            (norm): LayerNorm((1024,), eps=1e-05, elementwise_affine=True)
            (fn): Attention(
              (to_qkv): Linear(in_features=1024, out_features=3072, bias=False)
              (to_out): Linear(in_features=1024, out_features=1024, bias=True)
              (rearrange_qkv): Rearrange('b n (qkv h d) -> qkv b h n d', qkv=3, h=8)
              (rearrange_out): Rearrange('b h n d -> b n (h d)')
            )
          )
        )
        (9): Residual(
          (fn): Norm(
            (norm): LayerNorm((1024,), eps=1e-05, elementwise_affine=True)
            (fn): MLP(
              (l1): Linear(in_features=1024, out_features=1536, bias=True)
              (l2): Linear(in_features=1536, out_features=1024, bias=True)
            )
          )
        )
        (10): Residual(
          (fn): Norm(
            (norm): LayerNorm((1024,), eps=1e-05, elementwise_affine=True)
            (fn): Attention(
              (to_qkv): Linear(in_features=1024, out_features=3072, bias=False)
              (to_out): Linear(in_features=1024, out_features=1024, bias=True)
              (rearrange_qkv): Rearrange('b n (qkv h d) -> qkv b h n d', qkv=3, h=8)
              (rearrange_out): Rearrange('b h n d -> b n (h d)')
            )
          )
        )
        (11): Residual(
          (fn): Norm(
            (norm): LayerNorm((1024,), eps=1e-05, elementwise_affine=True)
            (fn): MLP(
              (l1): Linear(in_features=1024, out_features=1536, bias=True)
              (l2): Linear(in_features=1536, out_features=1024, bias=True)
            )
          )
        )
      )
    )
    (encoder_pos_embedding): PositionalEncoding(
      (dropout): Dropout(p=0.1, inplace=False)
    )
    (encoder_linear_embedding): LinearEmbedding(
      (net): Linear(in_features=1024, out_features=1024, bias=True)
    )
  )
  (decoder): TransformerDecoder(
    (expander): ModuleList(
      (0): Sequential(
        (0): Conv1d(1024, 1024, kernel_size=(5,), stride=(1,), padding=(2,), padding_mode=replicate)
        (1): LeakyReLU(negative_slope=0.2, inplace=True)
        (2): InstanceNorm1d(1024, eps=1e-05, momentum=0.1, affine=False, track_running_stats=False)
      )
    )
    (decoder_transformer): Transformer(
      (net): Sequential(
        (0): Residual(
          (fn): Norm(
            (norm): LayerNorm((1024,), eps=1e-05, elementwise_affine=True)
            (fn): Attention(
              (to_qkv): Linear(in_features=1024, out_features=3072, bias=False)
              (to_out): Linear(in_features=1024, out_features=1024, bias=True)
              (rearrange_qkv): Rearrange('b n (qkv h d) -> qkv b h n d', qkv=3, h=8)
              (rearrange_out): Rearrange('b h n d -> b n (h d)')
            )
          )
        )
        (1): Residual(
          (fn): Norm(
            (norm): LayerNorm((1024,), eps=1e-05, elementwise_affine=True)
            (fn): MLP(
              (l1): Linear(in_features=1024, out_features=1536, bias=True)
              (l2): Linear(in_features=1536, out_features=1024, bias=True)
            )
          )
        )
        (2): Residual(
          (fn): Norm(
            (norm): LayerNorm((1024,), eps=1e-05, elementwise_affine=True)
            (fn): Attention(
              (to_qkv): Linear(in_features=1024, out_features=3072, bias=False)
              (to_out): Linear(in_features=1024, out_features=1024, bias=True)
              (rearrange_qkv): Rearrange('b n (qkv h d) -> qkv b h n d', qkv=3, h=8)
              (rearrange_out): Rearrange('b h n d -> b n (h d)')
            )
          )
        )
        (3): Residual(
          (fn): Norm(
            (norm): LayerNorm((1024,), eps=1e-05, elementwise_affine=True)
            (fn): MLP(
              (l1): Linear(in_features=1024, out_features=1536, bias=True)
              (l2): Linear(in_features=1536, out_features=1024, bias=True)
            )
          )
        )
        (4): Residual(
          (fn): Norm(
            (norm): LayerNorm((1024,), eps=1e-05, elementwise_affine=True)
            (fn): Attention(
              (to_qkv): Linear(in_features=1024, out_features=3072, bias=False)
              (to_out): Linear(in_features=1024, out_features=1024, bias=True)
              (rearrange_qkv): Rearrange('b n (qkv h d) -> qkv b h n d', qkv=3, h=8)
              (rearrange_out): Rearrange('b h n d -> b n (h d)')
            )
          )
        )
        (5): Residual(
          (fn): Norm(
            (norm): LayerNorm((1024,), eps=1e-05, elementwise_affine=True)
            (fn): MLP(
              (l1): Linear(in_features=1024, out_features=1536, bias=True)
              (l2): Linear(in_features=1536, out_features=1024, bias=True)
            )
          )
        )
        (6): Residual(
          (fn): Norm(
            (norm): LayerNorm((1024,), eps=1e-05, elementwise_affine=True)
            (fn): Attention(
              (to_qkv): Linear(in_features=1024, out_features=3072, bias=False)
              (to_out): Linear(in_features=1024, out_features=1024, bias=True)
              (rearrange_qkv): Rearrange('b n (qkv h d) -> qkv b h n d', qkv=3, h=8)
              (rearrange_out): Rearrange('b h n d -> b n (h d)')
            )
          )
        )
        (7): Residual(
          (fn): Norm(
            (norm): LayerNorm((1024,), eps=1e-05, elementwise_affine=True)
            (fn): MLP(
              (l1): Linear(in_features=1024, out_features=1536, bias=True)
              (l2): Linear(in_features=1536, out_features=1024, bias=True)
            )
          )
        )
        (8): Residual(
          (fn): Norm(
            (norm): LayerNorm((1024,), eps=1e-05, elementwise_affine=True)
            (fn): Attention(
              (to_qkv): Linear(in_features=1024, out_features=3072, bias=False)
              (to_out): Linear(in_features=1024, out_features=1024, bias=True)
              (rearrange_qkv): Rearrange('b n (qkv h d) -> qkv b h n d', qkv=3, h=8)
              (rearrange_out): Rearrange('b h n d -> b n (h d)')
            )
          )
        )
        (9): Residual(
          (fn): Norm(
            (norm): LayerNorm((1024,), eps=1e-05, elementwise_affine=True)
            (fn): MLP(
              (l1): Linear(in_features=1024, out_features=1536, bias=True)
              (l2): Linear(in_features=1536, out_features=1024, bias=True)
            )
          )
        )
        (10): Residual(
          (fn): Norm(
            (norm): LayerNorm((1024,), eps=1e-05, elementwise_affine=True)
            (fn): Attention(
              (to_qkv): Linear(in_features=1024, out_features=3072, bias=False)
              (to_out): Linear(in_features=1024, out_features=1024, bias=True)
              (rearrange_qkv): Rearrange('b n (qkv h d) -> qkv b h n d', qkv=3, h=8)
              (rearrange_out): Rearrange('b h n d -> b n (h d)')
            )
          )
        )
        (11): Residual(
          (fn): Norm(
            (norm): LayerNorm((1024,), eps=1e-05, elementwise_affine=True)
            (fn): MLP(
              (l1): Linear(in_features=1024, out_features=1536, bias=True)
              (l2): Linear(in_features=1536, out_features=1024, bias=True)
            )
          )
        )
      )
    )
    (decoder_pos_embedding): PositionalEncoding(
      (dropout): Dropout(p=0.1, inplace=False)
    )
    (decoder_linear_embedding): LinearEmbedding(
      (net): Linear(in_features=1024, out_features=1024, bias=True)
    )
    (vertice_map_reverse): Linear(in_features=1024, out_features=15069, bias=True)
  )
  (quantize): VectorQuantizer(
    (embedding): Embedding(256, 64)
  )
)
[2025-08-29 17:01:14 codestyle.py line 62]=>INFO: Building optimizer ...
[2025-08-29 17:01:14 base_evaluator.py line 12]=>INFO: Loading evaluator: CodeTalkerEvaluator
[2025-08-29 17:01:14 base_trainer.py line 181]=>INFO: Using VQ loss function for metrics ...
[2025-08-29 17:01:14 base_trainer.py line 654]=>WARNING: No checkpoint found, train from scratch
[2025-08-29 17:01:14 base_trainer.py line 101]=>INFO: Initialize tensorboard (log_dir=./output\tensorboard)
…
